…
dict_keys(['go2wN3poHim', 'go2wN3po', 'go2wPosN3po', 'go2wN3po1', 'go2wPosN3po1', 'go2wN3poHimA', 'go2wN3poHimB', 'go2wN3poHimC', 'go2wN3poHimD', 'go2wN3poHimE', 'go2wN3poHimF', 'go2wN3poHimG', 'go2wN3poHimH'])
Setting seed: 1
Creating env...
FL_foot
FR_foot
RL_foot
RR_foot
tensor([[3.1416, 0.0000, 0.0000, 3.1416]], device='cuda:0')
cost name: _cost_dof_vel_limits
cost k value: 0.1
cost name: _cost_pos_limit
cost k value: 0.1
cost name: _cost_torque_limit
cost k value: 0.1
cost name: dof_vel_limits
cost d value: 0.0
cost name: pos_limit
cost d value: 0.0
cost name: torque_limit
cost d value: 0.0
ppo with teacher actor
run imitation
not using scan encoder
MlpBarlowTwinsActor(
  (obs_normalizer): EmpiricalNormalization()
  (mlp_encoder): Sequential(
    (0): Linear(in_features=285, out_features=128, bias=True)
    (1): BatchNorm1d(128, eps=1e-05, momentum=0.1, affine=True, track_running_stats=True)
    (2): ELU(alpha=1.0)
    (3): Linear(in_features=128, out_features=64, bias=True)
    (4): BatchNorm1d(64, eps=1e-05, momentum=0.1, affine=True, track_running_stats=True)
    (5): ELU(alpha=1.0)
  )
  (latent_layer): Sequential(
    (0): Linear(in_features=64, out_features=32, bias=True)
    (1): BatchNorm1d(32, eps=1e-05, momentum=0.1, affine=True, track_running_stats=True)
    (2): ELU(alpha=1.0)
    (3): Linear(in_features=32, out_features=16, bias=True)
  )
  (vel_layer): Linear(in_features=64, out_features=3, bias=True)
  (actor): Sequential(
    (0): Linear(in_features=76, out_features=512, bias=True)
    (1): ELU(alpha=1.0)
    (2): Linear(in_features=512, out_features=256, bias=True)
    (3): ELU(alpha=1.0)
    (4): Linear(in_features=256, out_features=128, bias=True)
    (5): ELU(alpha=1.0)
    (6): Linear(in_features=128, out_features=16, bias=True)
  )
  (projector): Sequential(
    (0): Linear(in_features=16, out_features=64, bias=False)
    (1): BatchNorm1d(64, eps=1e-05, momentum=0.1, affine=True, track_running_stats=True)
    (2): ELU(alpha=1.0)
    (3): Linear(in_features=64, out_features=64, bias=False)
  )
  (bn): BatchNorm1d(64, eps=1e-05, momentum=0.1, affine=False, track_running_stats=True)
)
ActorCriticBarlowTwins(
  (obs_normalize): EmpiricalNormalization()
  (priv_encoder): Identity()
  (scan_encoder): Identity()
  (history_encoder): StateHistoryEncoder(
    (activation_fn): ELU(alpha=1.0)
    (encoder): Sequential(
      (0): Linear(in_features=60, out_features=30, bias=True)
      (1): ELU(alpha=1.0)
    )
    (conv_layers): Sequential(
      (0): Conv1d(30, 20, kernel_size=(4,), stride=(2,))
      (1): ELU(alpha=1.0)
      (2): Conv1d(20, 10, kernel_size=(2,), stride=(1,))
      (3): ELU(alpha=1.0)
      (4): Flatten(start_dim=1, end_dim=-1)
    )
    (linear_output): Sequential(
      (0): Linear(in_features=30, out_features=16, bias=True)
      (1): ELU(alpha=1.0)
    )
  )
  (actor_teacher_backbone): MlpBarlowTwinsActor(
    (obs_normalizer): EmpiricalNormalization()
    (mlp_encoder): Sequential(
      (0): Linear(in_features=285, out_features=128, bias=True)
      (1): BatchNorm1d(128, eps=1e-05, momentum=0.1, affine=True, track_running_stats=True)
      (2): ELU(alpha=1.0)
      (3): Linear(in_features=128, out_features=64, bias=True)
      (4): BatchNorm1d(64, eps=1e-05, momentum=0.1, affine=True, track_running_stats=True)
      (5): ELU(alpha=1.0)
    )
    (latent_layer): Sequential(
      (0): Linear(in_features=64, out_features=32, bias=True)
      (1): BatchNorm1d(32, eps=1e-05, momentum=0.1, affine=True, track_running_stats=True)
      (2): ELU(alpha=1.0)
      (3): Linear(in_features=32, out_features=16, bias=True)
    )
    (vel_layer): Linear(in_features=64, out_features=3, bias=True)
    (actor): Sequential(
      (0): Linear(in_features=76, out_features=512, bias=True)
      (1): ELU(alpha=1.0)
      (2): Linear(in_features=512, out_features=256, bias=True)
      (3): ELU(alpha=1.0)
      (4): Linear(in_features=256, out_features=128, bias=True)
      (5): ELU(alpha=1.0)
      (6): Linear(in_features=128, out_features=16, bias=True)
    )
    (projector): Sequential(
      (0): Linear(in_features=16, out_features=64, bias=False)
      (1): BatchNorm1d(64, eps=1e-05, momentum=0.1, affine=True, track_running_stats=True)
      (2): ELU(alpha=1.0)
      (3): Linear(in_features=64, out_features=64, bias=False)
    )
    (bn): BatchNorm1d(64, eps=1e-05, momentum=0.1, affine=False, track_running_stats=True)
  )
  (critic): Sequential(
    (0): Linear(in_features=306, out_features=512, bias=True)
    (1): ELU(alpha=1.0)
    (2): Linear(in_features=512, out_features=256, bias=True)
    (3): ELU(alpha=1.0)
    (4): Linear(in_features=256, out_features=128, bias=True)
    (5): ELU(alpha=1.0)
    (6): Linear(in_features=128, out_features=1, bias=True)
  )
  (cost): Sequential(
    (0): Linear(in_features=306, out_features=512, bias=True)
    (1): ELU(alpha=1.0)
    (2): Linear(in_features=512, out_features=256, bias=True)
    (3): ELU(alpha=1.0)
    (4): Linear(in_features=256, out_features=128, bias=True)
    (5): ELU(alpha=1.0)
    (6): Linear(in_features=128, out_features=3, bias=True)
    (7): Softplus(beta=1.0, threshold=20.0)
  )
)
gathering 10000 frames
obs_buf:  tensor([… device='cuda:0',
       grad_fn=<SelectBackward0>)
self.obs_history_buf:  tensor([[… device='cuda:0',
       grad_fn=<SelectBackward0>)
obs_buf:  tensor([… device='cuda:0', grad_fn=<SelectBackward0>)
self.obs_history_buf:  tensor([[… device='cuda:0', grad_fn=<SelectBackward0>)
…
